ONNXruntime-example/sample_data/saturation_model.pt (torch, 2719 bytes, 5 tensors)

layer1.weight f4 [10, 2]
00000000: 3b39 5dc0 76fa 81bd 8730 82c2 2d4f e73b
00000010: 938b 9540 694d 7abd dce0 79c1 6d09 13bc
00000020: 8a48 5942 9d46 bb3b cd0e 8842 f67f 9c3b
00000030: 4495 19c2 38dd 82ba 067f e13d bcab 7dbe
00000040: 54e8 aa41 e819 2ebc d361 dbbd 941a 5840
-3.456618 -0.063466 -65.09478 0.007058999 4.673288 -0.06110898 -15.617397 -0.008974415
54.32084 0.005715205 68.02891 0.0047759963 -38.395767 -0.0009984141 0.11010556 -0.24772543
21.363441 -0.010626294 -0.10712018 3.3766222

layer1.bias f4 [10]
00000000: ca8c be3f a700 6abf 95fa b33f e916 bb3f
00000010: c05c 25bf 4beb ddbe 8650 3f3f a042 5dbf
00000020: 8b4a 9b3f a3cf 0dc0
1.4886715 -0.91407245 1.4060847 1.4616367 -0.6459465 -0.43343577 0.74732244 -0.86429787
1.2132124 -2.2157981

layer2.weight f4 [10, 10]
00000000: 42a4 9dc0 b7d6 99bf 47f6 8e3f ca79 50c0
00000010: 1cfa b83f 9e31 623f 31a1 32c0 6b2f 69c1
00000020: 725e d6be 2cb7 8040 156c 873e 20ff 12c0
00000030: 79f2 2640 bdd8 2cbf caf2 dc3f 4395 db3f
00000040: 1428 60bf 399c 3441 291e 4540 fa33 14bf
00000050: 6aa5 623f 627c 3440 df97 44c0 0e86 b23f
00000060: 3b47 86bf bef9 93bf b359 e43f 6971 c540
00000070: 00e4 2ec0 542b b4be 45d9 21bd 1555 d0bf
00000080: 4552 8940 bc69 6dbd d720 ae3f 1928 cd3f
00000090: c63c 34bf ba09 4b41 22be 1a40 730e d7bf
000000a0: 39f8 1740 8cfb 4440 2541 5fc0 38ec 1a40
000000b0: 1a7e 1bc0 e63a 26c0 f992 2c40 64d0 0b40
000000c0: 55df 39c0 1f63 c1bf c137 0cc0 097a 97bf
000000d0: 3bbd 4e3f 5f40 d7bf e75d ab3f 6519 a63f
000000e0: a5a5 d3bf 0e6c f13f c6b4 4f3f c5ac 9f3f
000000f0: 81ac 2cbe d225 013f 707d 93c0 37a0 0140
00000100: 5f24 f8bf 8a3c 9ebf af7e 0340 ce1d 5fc1
00000110: eaa8 e1bf a4a3 edbf f958 6040 3170 b03f
00000120: 32cf 67bf 3e25 0540 9ecc f9bf cc1e d5bf
00000130: 178a 0240 d387 41c0 e433 b1bf c903 c1bf
00000140: bf3d 5e40 88f5 3840 2b5c 16c0 8f10 4840
00000150: 924f 09c0 bdba fabf 3410 4540 99d5 1e3f
00000160: f0d8 bfbf b599 05c0 3528 3fc0 8488 f6bf
00000170: fc01 3140 b20f 23c0 4df2 ea3f 7ebb d03f
00000180: c4c6 1ec0 ea87 b93f 3d17 e43f 7bda 0040
-4.926301 -1.2018651 1.1168908 -3.2574334 1.4451327 0.8835696 -2.7910883 -14.574077
-0.4186893 4.02236 0.26449648 -2.2968216 2.6085494 -0.67518216 1.7261593 1.7154926
-0.87561154 11.28814 3.0799658 -0.5789181 0.8853365 2.8200917 -3.0717695 1.394716
-1.0490488 -1.156059 1.7839874 6.170094 -2.732666 -0.35189307 -0.039513845 -1.6275965
4.2912927 -0.057962164 1.3603772 1.6027862 -0.7040523 12.689875 2.4178548 -1.6801285
2.3745253 3.0778532 -3.488351 2.4206676 -2.4295716 -2.5973449 2.6964705 2.1845942
-2.904256 -1.5108374 -2.190903 -1.1834117 0.8075749 -1.681652 1.3388032 1.29765
-1.6534926 1.8861101 0.81135213 1.24746 -0.1686268 0.50448334 -4.609062 2.0254037
-1.93861 -1.2362225 2.0546072 -13.944777 -1.7629673 -1.8565564 3.5054305 1.3784238
-0.9055053 2.080398 -1.9515569 -1.6650023 2.0396783 -3.023915 -1.3843961 -1.507928
3.4725187 2.889986 -2.3493755 3.1260107 -2.1454816 -1.9588238 3.079114 0.62044674
-1.4988079 -2.0875065 -2.986829 -1.9260411 2.765746 -2.547833 1.8355194 1.6307218
-2.4808817 1.4494603 1.7819592 2.013335

layer2.bias f4 [10]
00000000: 844c 06bf e920 3c3e 517b 3e3f 5abf f93e
00000010: 5b18 d43e ee8c e3be c772 8e3e 3f7c 773e
00000020: 4b0e db3e 2569 43bd
-0.52460504 0.18371929 0.74406916 0.48778802 0.41424832 -0.44443458 0.27821943 0.2416849
0.42784342 -0.047707696

layer3.weight f4 [1, 10]
00000000: 2a88 873f 76ae e93e c815 4d3f 98f7 a43f
00000010: e1c3 94bf 3d70 62bf 6cbb 363f 8904 b83e
00000020: f499 aebf 9ba6 13bf
1.0588429 0.45640916 0.8011136 1.288806 -1.1622277 -0.8845251 0.71379733 0.3594096
-1.3640733 -0.57676095
