TFlite-example/sample_data/saturation_model.tflite (tflite, 2388 bytes, 5 tensors)

sequential/dense/BiasAdd/ReadVariableOp/resource f4 [10]
-0.36363614 -1.3579228 -0.1861315 0.17816938 0.23202276 0.833013 -0.19851345 -0.0067259534
-0.7110024 -0.37145576
00000000: 842e babe 6ad0 adbf 4299 3ebe 0972 363e
00000010: 6097 6d3e 5740 553f 1c47 4bbe 6365 dcbb
00000020: 4104 36bf 732f bebe

sequential/dense_1/BiasAdd/ReadVariableOp/resource f4 [10]
-0.45729285 -0.22744434 0.12820986 0.1503973 -0.28469557 -0.42291352 0.18222691 -0.020987852
0.055743508 0.26572296
00000000: 4a22 eabe 2be7 68be 7249 033e c001 1a3e
00000010: 9ec3 91be 1f88 d8be b199 3a3e b7ee abbc
00000020: 4e53 643d d70c 883e

sequential/dense/MatMul f4 [10, 2]
-8.941784 0.0063175373 -33.87708 0.059126124 26.009806 0.0043067 -47.12992 -0.00017024527
-30.21382 -0.032103617 -2.7411695 -0.18948372 -4.0517626 -0.0018265796 29.017014 0.0006252365
0.35920012 -1.0964388 49.513287 0.0010191083
00000000: 8c11 0fc1 5803 cf3b 2182 07c2 3c2e 723d
00000010: 1514 d041 381f 8d3b 0a85 3cc2 de83 32b9
00000020: e7b5 f1c1 157f 03bd 526f 2fc0 0508 42be
00000030: 0aa8 81c0 d769 efba d822 e841 e9e6 233a
00000040: 14e9 b73e 1b58 8cbf 9b0d 4642 9a93 853a

sequential/dense_1/MatMul f4 [10, 10]
0.9730939 0.7456387 -1.586533 0.9806241 4.875271 -4.4160233 0.7334657 -1.7912819
-1.4275373 -2.226915 0.4736906 -1.0296557 -1.856324 1.1628177 0.6138671 3.2330327
2.7114236 -1.7123007 -1.7925495 -1.5358593 2.6335566 -1.1126509 -2.9970882 4.1277223
-0.7357574 -4.842174 4.798557 -2.9183455 -2.1770475 -2.6963048 -0.07429454 0.19935384
0.16544041 -0.26001745 -1.9762667 2.4279177 -0.5699735 0.07083344 -0.6673672 -0.31252983
3.4551866 -0.4318997 -4.52677 4.2379775 -5.817917 -4.481501 5.1377654 -4.060654
-18.788656 -2.6723418 1.1415898 1.3045247 -2.3328962 0.92809 1.5799934 -4.6454206
0.93260926 -2.2034674 -22.466076 -2.7413151 -1.098544 0.5123641 1.8163947 -0.88676333
-6.9375257 -7.50094 -2.4268332 0.6101214 -10.867205 1.304039 -1.3470744 0.40767276
0.7151356 -0.7194971 0.29430526 2.4290593 -1.2257386 1.1287307 -2.4994874 1.155553
0.50055176 -0.47314304 -0.616876 0.53798115 0.8335297 0.5310249 0.60860014 -0.33881816
-1.0112954 -0.5825155 -0.07895547 0.15232617 0.24432848 -0.3950244 -1.7417074 -0.17363867
-0.8769727 0.8682926 -4.7367234 -0.1653147
00000000: af1c 793f 2ee2 3e3f 8313 cbbf 2e0a 7b3f
00000010: 3802 9c40 1050 8dc0 68c4 3b3f ba48 e5bf
00000020: 8bb9 b6bf c685 0ec0 9387 f23e c2cb 83bf
00000030: 069c edbf 36d7 943f 6526 1d3f 02ea 4e40
00000040: f787 2d40 ab2c dbbf 4372 e5bf 0a97 c4bf
00000050: 318c 2840 586b 8ebf 4bd0 3fc0 4d16 8440
00000060: 995a 3cbf 17f3 9ac0 c78d 9940 2cc6 3ac0
00000070: bf54 0bc0 4290 2cc0 bc27 98bd 6a23 4c3e
00000080: 3669 293e 0221 85be 4ff6 fcbf 0163 1b40
00000090: c9e9 11bf 1f11 913d 94d8 2abf e903 a0be
000000a0: c721 5d40 f521 ddbe 4ddb 90c0 839d 8740
000000b0: 602c bac0 7568 8fc0 9368 a440 e1f0 81c0
000000c0: 2b4f 96c1 a607 2bc0 9d1f 923f aafa a63f
000000d0: 2c4e 15c0 4e97 6d3f 393d ca3f 49a7 94c0
000000e0: 7bbf 6e3f 9c05 0dc0 86ba b3c1 b571 2fc0
000000f0: 179d 8cbf 4b2a 033f 9f7f e83f ec02 63bf
00000100: 3600 dec0 b307 f0c0 3c51 1bc0 eb30 1c3f
00000110: 12e0 2dc1 c0ea a63f ef6c acbf 7cba d03e
00000120: 2013 373f f630 38bf 2eaf 963e b575 1b40
00000130: 01e5 9cbf 3f7a 903f 9af7 1fc0 29e9 933f
00000140: 2924 003f ce3f f2be 96eb 1dbf 22b9 093f
00000150: 3462 553f 3ff1 073f 38cd 1b3f 9379 adbe
00000160: 2172 81bf bc1f 15bf 68b3 a1bd 64fb 1b3e
00000170: 3f31 7a3e a340 cabe 45f0 debf 56ce 31be
00000180: 4881 60bf 6d48 5e3f 3d93 97c0 4248 29be

sequential/dense_2/MatMul f4 [1, 10]
0.834492 -0.60518533 -1.1677496 0.5362609 -1.6278745 0.5709032 0.9995781 -0.7700475
1.0642822 0.32059887
00000000: 45a1 553f 6ded 1abf d278 95bf 6548 093f
00000010: 315e d0bf b626 123f 5ae4 7f3f d521 45bf
00000020: 663a 883f 8925 a43e
